model/StateDescriptorRN.pth (torch, 30295 bytes, 6 tensors)

input.weight f4 [64, 35]
0	0x3d7615f2	0.060079522
1	0xbbc1952c	-0.0059076753
2	0xbc4d4f12	-0.012531059
3	0x3e598beb	0.2124478
4	0xbc8298b8	-0.015941963
5	0xbb88e2bc	-0.0041774195
6	0xbc080413	-0.008301753
7	0x3e5e1b8e	0.21690199
8	0x3d931826	0.0718234
9	0xbb88bcf6	-0.0041729165
10	0xbc08e261	-0.008354754
11	0x3e18805b	0.14892714
12	0x3d7d774d	0.061881352
13	0x3b9c2f69	0.004766394
14	0xbc85ee99	-0.016349124
15	0x3e131f53	0.14367418
16	0x3d8681da	0.06567736
17	0x3b0fc1fa	0.0021935687
18	0xbc1ce9b4	-0.009577204
19	0x3e1dea6a	0.15421453
20	0xbcf45b61	-0.02982873
21	0xbc7c7620	-0.015409023
22	0xbc513fa2	-0.012771519
23	0x3e223d12	0.15843609
24	0xbd1e3de3	-0.03863324
25	0xbd380c61	-0.04493368
26	0xbd0ad6d3	-0.03389628
27	0xbd5630ba	-0.052292563
28	0x3c30378a	0.010755429
29	0xbd9ef361	-0.077612646
30	0xbcc359ba	-0.023846496
31	0x3cf0544b	0.029337069
32	0x3ebe6219	0.37184218
33	0xbe97fa0f	-0.29682967
34	0xbcd10530	-0.025515169
35	0x3d46e5a7	0.048558857
36	0x3c9db294	0.019250192
37	0xbd1d29fe	-0.038370125
38	0x3ecf77e6	0.40521163
39	0xbc9e9f1d	-0.01936298
40	0x3c1a66db	0.009423937
41	0xbd0fb40c	-0.035083815
42	0x3ef2a92e	0.473947
43	0x3da5de56	0.08099048
44	0xbc729d19	-0.014807963
45	0xbd13ad96	-0.036054216
46	0x3ee50169	0.44727638
47	0x3cf856d8	0.030314848
48	0x3b4a92d9	0.0030910282
49	0xbcd1813a	-0.025574315
50	0x3ebd3831	0.36956933
51	0xbc0e5073	-0.008686173
52	0xbc1d2b58	-0.0095928535
53	0xbd38f3a4	-0.04515423
54	0x3ee2ed00	0.44321442
55	0x3d74491e	0.059640042
56	0xbd46029d	-0.048342336
57	0xbd38895f	-0.045052882
58	0x3eba473e	0.36382478
59	0xbd3df115	-0.046372492
60	0xb9bf93c1	-0.00036540444
61	0xbd869f65	-0.06573371
62	0x3cb25765	0.021770189
63	0xbc37f810	-0.011228576
64	0x3cc540ad	0.024078691
65	0x3e81e71d	0.25371638
66	0xbe4c4be4	-0.19950825
67	0xbf1dae49	-0.61594063
68	0x3f072566	0.5279144
69	0xbd3ff99d	-0.04686891
70	0x3d90beaa	0.07067616
71	0xbcde2466	-0.027116966
72	0x3d8ebea1	0.06969953
73	0xbd84010c	-0.06445512
74	0xbd9e3d89	-0.07726581
75	0xbd73aec2	-0.059492834
76	0xbdb142a3	-0.08655288
77	0x3d12a255	0.035799343
78	0x3cf186c0	0.0294832
79	0x3da7673a	0.08173986
80	0xbd2b985b	-0.041893344
81	0xbd5511c5	-0.0520189
82	0x3d330b64	0.043712035
83	0xbd92f4d9	-0.07175607
84	0x3a6fb978	0.00091447635
85	0xbca66937	-0.020313842
86	0x3d4325d8	0.047643512
87	0xbd65ca19	-0.05610094
88	0xbd5590b8	-0.052139968
89	0x3cd18e0c	0.025580429
90	0x3ca3a9f3	0.019978499
91	0xbd704855	-0.05866273
92	0x3d21deb1	0.039519016
93	0x3d5ec776	0.05438944
94	0xbd6c6924	-0.057717457
95	0xbd3687c7	-0.04456308
96	0x3d9bafa8	0.07601863
97	0xbcdf9a71	-0.027295323
98	0xbcde31c9	-0.027123349
99	0xbd9bb816	-0.07603471
100	0xbd2e2fb1	-0.04252595
101	0x3c920efe	0.017829414
102	0xbc322fae	-0.010875626
103	0xbd64cf70	-0.05586189
104	0x3af19c3c	0.0018433402
105	0xbd5bdd85	-0.053678054
106	0xbd8888a9	-0.06666691
107	0xbd313ea7	-0.04327264
108	0xbd8cdac4	-0.06877664
109	0xbd4cf1fd	-0.050035466
110	0x3da0def9	0.07855029
111	0x3c732b9d	0.014841941
112	0x3cc65f83	0.024215465
113	0xbd96198a	-0.0732909
114	0xbd53658d	-0.05161052
115	0xbcd64636	-0.026156526
116	0x3c4952a7	0.012287772
117	0xbd8d9aaa	-0.069142655
118	0xbd0aad98	-0.03385696
119	0xbd40b0ff	-0.047043797
120	0x39645954	0.00021777052
121	0xbcef8886	-0.029239904
122	0xbbb26d4a	-0.005445157
123	0xbd5a1a2e	-0.053247623
124	0xbd5ceccf	-0.053936776
125	0xbd3bc5e1	-0.04584301
126	0xbcdc5994	-0.026898183
127	0xbd7e0c08	-0.062023193
128	0x3d86f16a	0.06589015
129	0xbc7f83fe	-0.015595434
130	0x3d8a76b7	0.06760924
131	0x3cc89391	0.024484428
132	0xbd884638	-0.06654018
133	0x3d5ebf59	0.054381702
134	0xbcb11fbb	-0.021621576
135	0xbcf6c658	-0.030123875
136	0xbd8595bb	-0.065226994
137	0xbd9ffe02	-0.0781212
138	0x3cb82d20	0.022482455
139	0xbc8ca040	-0.017166257
140	0x3cfa9f4d	0.030593539
141	0xbbfdb887	-0.0077429446
142	0x3cbcd20a	0.023049373
143	0xbf8bfecc	-1.0937133
144	0x3d5e4f58	0.054274887
145	0xbba07a5b	-0.0048973984
146	0x3c811df1	0.015761347
147	0xbf9331a8	-1.1499529
148	0x3e543bfc	0.20726007
149	0xbaeb1e83	-0.001793817
150	0x3cbf3f5b	0.02334564
151	0xbf932304	-1.1495061
152	0x3e479884	0.19491774
153	0xbc80283c	-0.015644185
154	0x3ce21036	0.02759562
155	0xbf923064	-1.1421018
156	0x3ea07241	0.3133717
157	0xbc6ef15b	-0.014583911
158	0x3d0a517a	0.03376911
159	0xbf94f3ee	-1.1636941
160	0x3ed23fc9	0.4106429
161	0x3c8b0cb1	0.016973825
162	0x3c76805d	0.015045253
163	0xbf6a618b	-0.9155509
164	0x3d4d156e	0.050069265
165	0x3b19432d	0.0023385987
166	0x3d98b373	0.07456102
167	0x3c84634b	0.016160628
168	0xbba6446f	-0.005074076
169	0xbd321469	-0.043476496
170	0xbf543b87	-0.8290333
171	0x3f5a739e	0.8533267
172	0x3f85e147	1.0459374
173	0xbf744d42	-0.95430386
174	0xbd37a680	-0.04483652
175	0xbcdc715b	-0.02690952
176	0xbbfa0f71	-0.0076312353
177	0xbc77fe91	-0.015136377
178	0x3e4b251a	0.19838372
179	0xbd97435a	-0.07385893
180	0xbb02786c	-0.0019908203
181	0x3a2fa5f0	0.0006700447
182	0x3e1f1387	0.15534793
183	0xbce35572	-0.027750704
184	0x3b6faf61	0.003657304
185	0xb94ddc7a	-0.00019632457
186	0x3e31fb4c	0.17381018
187	0xbc5c812f	-0.013458534
188	0xba8ac642	-0.001058765
189	0xbca925dd	-0.020647937
190	0x3e07d5a1	0.13265087
191	0xbcbc033a	-0.022950757
192	0x3a6ced11	0.0009038011
193	0x3c11fbe6	0.008910155
194	0x3e0cbda2	0.13744214
195	0xbc8b5a50	-0.017010838
196	0xbc27f537	-0.010251335
197	0xbc4f378d	-0.012647522
198	0x3e0bc5d8	0.1364969
199	0x3cdf227c	0.027238123
200	0xbd944748	-0.07240158
201	0xbd43405b	-0.047668796
202	0x3d8fc0d0	0.07019198
203	0x3d28bcbf	0.041195627
204	0xbb801269	-0.0039084447
205	0xbcc6219a	-0.024185944
206	0xbd91b864	-0.07115248
207	0xbda9952d	-0.08280406
208	0xbc565955	-0.013082822
209	0x3cd964bc	0.026537292
210	0x3d4d3ad6	0.05010494
211	0x3c7549cf	0.014971211
212	0xbda05fd1	-0.078307755
213	0xbd4356d5	-0.04769023
214	0xbc53222f	-0.012886568
215	0x3d580795	0.052741606
216	0xbc46519e	-0.01210442
217	0xbca7b0bd	-0.020470018
218	0x3d012f29	0.031539116
219	0xbd0bdcef	-0.034146246
220	0xbd70ba40	-0.05877137
221	0x3d699497	0.057026472
222	0xbd1852d0	-0.03718835
223	0xbcfab8cc	-0.030605696
224	0xbdb179dc	-0.08665821
225	0x3d560054	0.052246407
226	0x3d6be718	0.057593435
227	0x3b28a2a9	0.0025731719
228	0xbd857bfc	-0.06517789
229	0xbd9f88fd	-0.077898
230	0xbd87aba6	-0.06624536
231	0x3d121b01	0.035670284
232	0x3c28ccc3	0.010302725
233	0x3d86c479	0.06580443
234	0x3d28deeb	0.041228216
235	0x3ca565c4	0.020190127
236	0xba9ae4a4	-0.0011817408
237	0xbd762ef9	-0.06010339
238	0xbd8a14ec	-0.06742272
239	0xbd9686a6	-0.07349901
240	0x3d0292e4	0.031878367
241	0xbd1ed3cf	-0.038776215
242	0xbc39dc33	-0.0113440035
243	0xbd4d8828	-0.050178677
244	0xbc6a9bc6	-0.014319366
245	0xbd628a61	-0.05530775
246	0xbd621acd	-0.05520134
247	0x3c250d10	0.010073915
248	0xbcc03a1e	-0.023465212
249	0x3d4584ce	0.048222356
250	0xbd0d1f9f	-0.034453984
251	0xbd853801	-0.065048225
252	0xbc659232	-0.014011906
253	0xbd1e62a7	-0.0386683
254	0xbcfa330f	-0.030541925
255	0xbd9ab94f	-0.07554876

input.bias f4 [64]
0	0x3b8e3f5b	0.0043410487
1	0xbc874d7b	-0.016516438
2	0x3cc27cff	0.023741243
3	0xbd59dfb7	-0.053191867
4	0x3dccd22a	0.10001023
5	0xbd8ac290	-0.06775391
6	0xbd2bdbe2	-0.041957743
7	0xbd2a6317	-0.041598406
8	0x3d1bbfcf	0.03802472
9	0xbb177ae3	-0.0023114018
10	0xbd97d1e1	-0.07413078
11	0xbd37d314	-0.044879034
12	0xbd16a2f8	-0.036776513
13	0xbd92bc4f	-0.07164823
14	0x3c183612	0.009290235
15	0x3d096546	0.033543848
16	0xbc687eca	-0.014190385
17	0xbd027e36	-0.031858645
18	0x392b3b57	0.00016329937
19	0xbd803244	-0.062595874
20	0xbd448b96	-0.047984682
21	0xbafd08ee	-0.001930503
22	0x3d929c6a	0.0715874
23	0xbcc9ac5b	-0.024618318
24	0x3d1f8cf1	0.03895277
25	0xbd01877b	-0.031623345
26	0xbcafe964	-0.021473594
27	0xbd998b6a	-0.07497294
28	0x3d84fdb4	0.064937025
29	0x3d9c886a	0.076432064
30	0x3bf24fd4	0.00739477
31	0x3d6395c4	0.05556275
32	0x3d8319b4	0.06401387
33	0x3d202f8e	0.03910785
34	0x3d68f157	0.056870785
35	0xbd928fa8	-0.071563065
36	0xbd9821ac	-0.074282974
37	0xbd775306	-0.06038191
38	0x3ccb3ee1	0.024810256
39	0xbd85cfbf	-0.06533765
40	0xbd75b107	-0.05998328
41	0xbd1d82b3	-0.038454723
42	0xbd94aafb	-0.072591744
43	0x3a8bb969	0.0010660115
44	0x3c39d2a6	0.011341726
45	0xbd3cdb2c	-0.046107456
46	0x3d513f6c	0.051085874
47	0xbcfb330c	-0.03066399
48	0xbcc4ae60	-0.02400893
49	0x3d88855d	0.06666062
50	0x3d8961d4	0.06708112
51	0x3ccebe89	0.025237339
52	0xbd6bfbe8	-0.057613283
53	0xbd22e4e6	-0.039769076
54	0x3c1c1eb7	0.009528807
55	0x3d3d5056	0.046219192
56	0x3d1f909e	0.038956277
57	0xbd0e39fb	-0.034723263
58	0xbd89a0ee	-0.06720148
59	0xbd8b6c7f	-0.06807803
60	0xbcdd1565	-0.02698774
61	0xb817f67c	-3.6230762e-05
62	0xbd116437	-0.035495963
63	0xbd9795d1	-0.07401622

g_fc1.weight f4 [64, 64]
0	0x3bfc1f99	0.0076941964
1	0xbd23d916	-0.04000195
2	0xbd38466b	-0.04498903
3	0xbd417f49	-0.04724053
4	0xbd1cb5b7	-0.038259234
5	0x3d39d59d	0.045369733
6	0x3ca3dfb0	0.020004123
7	0xbbe339a3	-0.006934361
8	0x3c43f372	0.011959897
9	0x3c52d324	0.012867723
10	0x3a836eb6	0.0010027501
11	0xbd3ffc89	-0.046871696
12	0xbd18f995	-0.037347395
13	0xbb15c58f	-0.002285335
14	0xbb95d3c3	-0.004572363
15	0xbd110af6	-0.035410844
16	0xbc6766f6	-0.014123669
17	0xbcafc36c	-0.02145549
18	0x3d54fcf0	0.051999032
19	0x3d3eb52b	0.046559494
20	0x3cf89af0	0.030347317
21	0x3b901a4b	0.0043976656
22	0xbbc93267	-0.0061400416
23	0x3c7c8a26	0.0154137965
24	0xbd191a6c	-0.037378713
25	0xbcdba53d	-0.02681219
26	0xbc33e1d1	-0.010979132
27	0xbc5fafe8	-0.013652779
28	0xbd6164ef	-0.0550279
29	0x3cbcc664	0.023043819
30	0x3d3a0c39	0.045421813
31	0xbcd9dd63	-0.026594823
32	0x3c82ec41	0.015981795
33	0xbc62f292	-0.013851779
34	0x3c5bd7c5	0.013418143
35	0x3c2ace8b	0.01042522
36	0x3d3740a5	0.044739384
37	0x3bff6dde	0.0077950796
38	0xbd0f334d	-0.034961034
39	0xbca757a0	-0.020427525
40	0x3ce1364a	0.027491707
41	0x3c6db0d1	0.014507488
42	0x3a89769a	0.0010487617
43	0xbc54c2f7	-0.012985936
44	0x3b687252	0.003546853
45	0xbca63444	-0.020288594
46	0xbcfb6ddd	-0.030692035
47	0x3bc03b2c	0.005866429
48	0x3c05116a	0.008121828
49	0x3d860b22	0.06545092
50	0xbc8f8843	-0.01752103
51	0xbca063f5	-0.019578913
52	0x3cdbe32c	0.026841722
53	0x3caeba6d	0.02132913
54	0x3bacd570	0.005274467
55	0x3cbe15f2	0.023203824
56	0xba9f92c0	-0.0012174472
57	0xbd4c2cee	-0.049847536
58	0x39f49bff	0.00046655533
59	0xbc3ced00	-0.011531115
60	0x3d144d69	0.036206637
61	0x3d1e50f9	0.03865144
62	0x3c366e12	0.011134641
63	0x3e2684e9	0.16261639
64	0xbcf52275	-0.029923657
65	0x3d564b1a	0.052317716
66	0x3d4613fb	0.0483589
67	0xbb118f51	-0.0022210667
68	0xbd8cd239	-0.06876034
69	0xbc998cb7	-0.018743856
70	0xbc7e9d74	-0.015540469
71	0x3a7b83f3	0.0009594552
72	0xbd57cd83	-0.052686226
73	0x3c320fb0	0.010867998
74	0xbcc7856f	-0.024355618
75	0xbc73c695	-0.014878889
76	0xbcf5e0de	-0.030014452
77	0xbc9a8ae9	-0.018865066
78	0xbd5e2055	-0.054230053
79	0xbd8bbd44	-0.06823209
80	0x3c12f98a	0.008970628
81	0x3d1bfac9	0.038080964
82	0x3d57f28a	0.052721538
83	0xbd33a860	-0.043861747
84	0x3cc81e1d	0.024428422
85	0xbd0219a9	-0.031762753
86	0xbd2c37b6	-0.042045318
87	0xbb270728	-0.0025486443
88	0xbd13649a	-0.035984613
89	0xbd4d0b06	-0.05005934
90	0xbd5da724	-0.054114476
91	0xbd1f5d0e	-0.038907103
92	0x3d4397ba	0.04775212
93	0x3d04ba7d	0.03240441
94	0xbdbf1719	-0.093305774
95	0xbd4ad875	-0.049522836
96	0xbd35c678	-0.044378728
97	0xbd0c90ae	-0.034317665
98	0xbd876bbf	-0.06612348
99	0x3cde648e	0.027147558
100	0x3c9bd785	0.019023666
101	0xbcb7754e	-0.022394802
102	0x3d2142a9	0.039370213
103	0xbd9c278f	-0.07624733
104	0xbd41ce93	-0.047316145
105	0x3c606ce0	0.013697833
106	0xbd03578a	-0.032065906
107	0x3c75c911	0.015001551
108	0x3d2d699d	0.04233705
109	0xbce0fb01	-0.027463438
110	0xbd26313f	-0.04057431
111	0x3cb23f09	0.021758573
112	0xbd5885d8	-0.05286202
113	0x3d13af7d	0.03605603
114	0xbcdf2f14	-0.027244128
115	0xbcb6feba	-0.02233826
116	0xbd3d45a1	-0.04620898
117	0xbd21ab59	-0.03947005
118	0x3bd375bf	0.0064532454
119	0x3ca8850c	0.020571254
120	0x3d31e97f	0.04343557
121	0x3d471160	0.048600554
122	0x3b457a4b	0.0030132707
123	0xbbf3fe74	-0.0074461047
124	0x3c1d621e	0.0096059125
125	0xbc5d2f7f	-0.0135000935
126	0x3b0ba098	0.0021305438
127	0xbe6e573c	-0.23275465
128	0xbd445b8f	-0.04793888
129	0x3db60764	0.088881284
130	0xbd0977bf	-0.033561464
131	0x3d3b6f9d	0.04576074
132	0xbda6f730	-0.08152616
133	0x3c24b6d8	0.010053359
134	0x3d53b44b	0.051685613
135	0xbd0495ba	-0.032369353
136	0xbc164b51	-0.00917323
137	0xbaf47ea5	-0.0018653466
138	0x3c560342	0.0130623
139	0xbd67a685	-0.05655529
140	0x3ca588eb	0.02020689
141	0xbb5a2338	-0.0033285152
142	0x3bb736bf	0.005591243
143	0x3d38fb68	0.045161635
144	0xbc2d034e	-0.01055987
145	0xbb809365	-0.003923821
146	0xbc279ba7	-0.0102299815
147	0x3d408ecc	0.04701118
148	0x3cf4d376	0.029885989
149	0x3c1d7e65	0.009612654
150	0xbc3d2679	-0.011544817
151	0xbd05a1f0	-0.03262514
152	0x3d53b5aa	0.05168692
153	0x3d1cbe0f	0.03826719
154	0x3d07f7d2	0.033195324
155	0xbd39d094	-0.04536493
156	0x3d396cdc	0.045269832
157	0xbbb71339	-0.0055870083
158	0x3ca0d339	0.019631969
159	0x3d1db125	0.038499016
160	0x3c2fca00	0.010729313
161	0xbcff3144	-0.031151421
162	0x3cba9b27	0.02277906
163	0xbcfaaf5f	-0.030601202
164	0x3d146059	0.036224697
165	0xbd643da8	-0.055722862
166	0xbc945e49	-0.018111365
167	0xbd5ed819	-0.054405306
168	0xbcdb6c79	-0.026785122
169	0x3ca0c5b4	0.019625522
170	0xbd2acbed	-0.041698385
171	0xbd5619e4	-0.052270785
172	0x3d4b97ab	0.04970519
173	0x3d01867e	0.031622402
174	0xba38f5b5	-0.0007055656
175	0xbd3a67ee	-0.04550927
176	0xbcbc27dc	-0.022968225
177	0xbc43dae2	-0.011954041
178	0x3d07560e	0.033041053
179	0xbd68df42	-0.05685354
180	0xbcf9d0e6	-0.030495118
181	0xbd28b9cb	-0.04119281
182	0xbce56397	-0.02800159
183	0x3d1a5f82	0.03768874
184	0x3d142eb1	0.03617734
185	0x3c0a54d4	0.008443076
186	0x3dbee367	0.09320717
187	0x3d5bd78c	0.05367236
188	0x3a81527d	0.0009866502
189	0xbcf21581	-0.02955127
190	0xbca561e5	-0.020188281
191	0xbd4f8e8e	-0.05067306
192	0x3cc5e664	0.02415771
193	0x3cebe7e4	0.028797098
194	0x3d220fff	0.039566036
195	0xbb2b990c	-0.0026183752
196	0xbbfe7148	-0.007764969
197	0xbccea2db	-0.02522414
198	0xbcdbfd9f	-0.026854334
199	0xbcb05d17	-0.021528764
200	0xbd5f5126	-0.05452075
201	0xbd1cbb14	-0.03826435
202	0xbd697950	-0.05700046
203	0xbb61110e	-0.003434244
204	0x3a224ced	0.00061912724
205	0xbd02dedf	-0.031950828
206	0xbd2b1a2b	-0.041773003
207	0x3ce23ccf	0.027616886
208	0xbc9c19e8	-0.019055322
209	0x3ce36500	0.027758121
210	0x3d279a15	0.04091843
211	0xbd1c50fc	-0.03816317
212	0xbbe729b9	-0.0070545343
213	0x3d08fd5c	0.033444747
214	0x3d50e6a6	0.051001213
215	0xbbfff1dc	-0.0078108143
216	0x3d23ae94	0.039961413
217	0xbd415a33	-0.04720516
218	0xbd1e9061	-0.03871191
219	0x3d43c004	0.047790542
220	0xbbb444d3	-0.0055013685
221	0x3d6b1d81	0.057401184
222	0xbcd2b5c3	-0.025721436
223	0xbd081644	-0.03322436
224	0x3d63418b	0.05548243
225	0x3d453428	0.048145443
226	0xbd372432	-0.044712253
227	0xbd2dbc71	-0.04241604
228	0xbabeffac	-0.0014572046
229	0xbce458c0	-0.02787435
230	0x3cdd11ad	0.026985968
231	0xbcd88d32	-0.026434515
232	0x3c4b6938	0.012415223
233	0x3d114c2f	0.035473045
234	0x3c9e16cd	0.019297982
235	0xbd4c6893	-0.049904417
236	0x3d060797	0.032722082
237	0x3d0eddb0	0.034879386
238	0xbd12ee37	-0.03587171
239	0x3d36ab74	0.044597104
240	0x3c32ac8b	0.010905395
241	0xbc850e6e	-0.016242232
242	0xbd2a3fa1	-0.041564588
243	0xbc3197f7	-0.010839454
244	0xbd79cda6	-0.060987137
245	0x3cf82229	0.030289726
246	0x3d281cda	0.04104314
247	0xbc8a9c91	-0.01692036
248	0x3d5092f9	0.050921414
249	0xbcb04748	-0.021518365
250	0x3ab70112	0.0013962111
251	0xbd2c1157	-0.042008724
252	0xbbe44395	-0.006966064
253	0x3c919e6f	0.017775742
254	0x3ccd76c6	0.02508105
255	0xbe129563	-0.14314799

g_fc1.bias f4 [64]
0	0x3cca6951	0.024708422
1	0xbcd35b93	-0.025800502
2	0x3d13e227	0.036104348
3	0xbcbb344c	-0.022852086
4	0x3d0916ed	0.03346913
5	0x3ca8a66c	0.020587169
6	0x3d7cb967	0.06170025
7	0xbc3092b3	-0.010777163
8	0xbbd64f51	-0.006540217
9	0xbd01a905	-0.03165533
10	0x3ba31491	0.004976817
11	0xbcb6a56c	-0.022295676
12	0x3d20a64e	0.0392211
13	0xbd02394b	-0.03179292
14	0x3cbd8452	0.023134384
15	0xbd37cd3e	-0.04487347
16	0xbbe9cc93	-0.007134983
17	0x3d15ca14	0.03656967
18	0xbca5872c	-0.020206057
19	0x3cfb721d	0.030694062
20	0xbd827813	-0.063705586
21	0x3c93a9d3	0.018025314
22	0x3c807355	0.015679995
23	0xbc112f31	-0.008861349
24	0x3d459251	0.04823524
25	0x3d664e7a	0.056227185
26	0x3ca50639	0.020144569
27	0x3ce1970b	0.027537843
28	0x3cfe3f34	0.031035997
29	0xbdb56254	-0.08856645
30	0xbd3f86f7	-0.046759572
31	0x3d7d55f3	0.061849546
32	0xba50e37d	-0.00079684687
33	0x3c3b28ea	0.011423329
34	0x3b6307bc	0.0034642061
35	0x3d3e1f70	0.0464167
36	0x3da5faa7	0.08104449
37	0xbccd27e6	-0.02504344
38	0x3cb48617	0.022036595
39	0xbd49cbeb	-0.049266737
40	0x3d2873e0	0.041126132
41	0x3cd3ed38	0.02586995
42	0x3cbf3143	0.02333892
43	0x3c8dec31	0.017324539
44	0xbc4f9731	-0.012670324
45	0xbc51d078	-0.0128060505
46	0x3d9a64c1	0.075387485
47	0xbd3e0523	-0.046391618
48	0x3ca2e016	0.019882243
49	0x3cfd941e	0.030954417
50	0x3bd516b3	0.00650295
51	0x3e0b5864	0.13607937
52	0x3cdb1796	0.026744645
53	0xbd470894	-0.048592165
54	0x3cbc5305	0.022988806
55	0xbb317325	-0.0027076688
56	0x3d6391e1	0.055559043
57	0xbd569836	-0.052391253
58	0x3d7ffcbc	0.062496886
59	0xbcb18449	-0.021669524
60	0x3d5a1f01	0.053252224
61	0xbced726a	-0.028985221
62	0x3c69fe94	0.014281888
63	0x3c52dc33	0.012869882

out.weight f4 [10, 64]
0	0xbd9a1771	-0.07524002
1	0x3d8f85e5	0.0700796
2	0x3d9f5e92	0.0778171
3	0xbbd6c16d	-0.00655382
4	0x3dfa8e70	0.12234199
5	0x3dc9d9c0	0.09855986
6	0x3e0ed3ed	0.13948031
7	0x3df43d8c	0.11925802
8	0xbe6320d3	-0.2218049
9	0x3eaf977e	0.34295267
10	0x3e02eae4	0.12784916
11	0x3de461b3	0.11151447
12	0x3e074abf	0.13212107
13	0x38e0c888	0.00010718504
14	0x3e0aca3a	0.13553706
15	0xbd0a2f48	-0.033736497
16	0xbbf53838	-0.0074835084
17	0x3e42c15b	0.19019072
18	0x3d2a2b1f	0.04154503
19	0x3d1b8463	0.03796805
20	0x3e392d00	0.18083572
21	0x3dd092bd	0.10184238
22	0x3e4a8d9b	0.1978058
23	0x3dd47aec	0.10375008
24	0x3e7b3afb	0.24534218
25	0xbd46e3d5	-0.04855712
26	0x3e352a62	0.17691949
27	0xbe89ead4	-0.26936972
28	0xbd083016	-0.033248983
29	0xbd74ed90	-0.05979687
30	0x3db714b5	0.089394964
31	0x3c716f25	0.014735972
32	0x3e14975c	0.14510864
33	0xbcc3b55c	-0.02389019
34	0x3c9eaa82	0.019368414
35	0x3cdb1100	0.026741505
36	0xbd9d5656	-0.07682483
37	0xbdc34498	-0.095345676
38	0x3e54a3f8	0.20765674
39	0x3cdbf2c0	0.02684915
40	0xbc9a1dd1	-0.018813046
41	0x3e75ed9b	0.2401642
42	0xbed350bc	-0.41272533
43	0x3dacc2a4	0.08435562
44	0xbcbb805e	-0.022888359
45	0x3d5b8caf	0.053600963
46	0xbe5c3322	-0.2150388
47	0x3e15fdd0	0.14647603
48	0x3e325046	0.17413434
49	0x3d6e151a	0.058125593
50	0xbe88575b	-0.26629147
51	0xbf137044	-0.5759318
52	0x3e4edbfc	0.20201105
53	0x3e2ea5dd	0.1705546
54	0x3dad904a	0.084747866
55	0x3c2c202b	0.010505716
56	0xbc40bb32	-0.011763381
57	0x3d92e108	0.071718276
58	0x3dfd7b9e	0.12377094
59	0x3c09b0cf	0.008403971
60	0x3d801d02	0.06255533
61	0x3d419530	0.047261417
62	0x3d12bb02	0.035822876
63	0x3d5dcced	0.05415051
64	0xbd069b8e	-0.032863192
65	0x3c8a2639	0.01686393
66	0x3dfc284c	0.123123735
67	0xbca4f884	-0.020138033
68	0x3e6f09d2	0.2334359
69	0x3d3c583e	0.04598259
70	0x3e2a0f6f	0.1660745
71	0x3da6fa57	0.08153217
72	0xbcc44d2c	-0.02396258
73	0x3ee04695	0.4380385
74	0x3a3588e8	0.00069250027
75	0x3e61bc20	0.2204442
76	0x3dbbe050	0.091736436
77	0x3cb0a018	0.021560714
78	0x3dfda7c7	0.123855166
79	0xbd031cff	-0.032010075
80	0xbd116690	-0.0354982
81	0x3e1c60aa	0.1527125
82	0xbceb1a34	-0.028699018
83	0x3de4ecde	0.11177991
84	0x3e50d03c	0.20391935
85	0xbdd9c86a	-0.10633929
86	0x3e4f3f89	0.2023908
87	0x3e5abb97	0.21360622
88	0x3e662d99	0.22478332
89	0xbe317457	-0.17329536
90	0x3e37c146	0.17944822
91	0xbe2c3cc1	-0.16820051
92	0xbba5bfee	-0.00505828
93	0xbdaaeb91	-0.08345712
94	0x3d95b330	0.07309568
95	0xbe02e879	-0.12783994
96	0x3db5e0c5	0.08880762
97	0x3cbc8a65	0.02301521
98	0x3d65b3e8	0.056079775
99	0xbd8c1794	-0.06840435
100	0x3d808e28	0.06277114
101	0xbe0b1e7b	-0.13585846
102	0x3e53a940	0.20670033
103	0x3e576ae7	0.21036874
104	0x3cdd281f	0.02699667
105	0x3eb07ad6	0.34468716
106	0xbe0a7ce8	-0.1352421
107	0x3df3701b	0.11886617
108	0xbc8e5ce1	-0.017378272
109	0x3de879e1	0.113513716
110	0xbe55c869	-0.20877232
111	0x3e3f1486	0.18660173
112	0x3e76e311	0.24110056
113	0x3dc4ae0f	0.096035115
114	0xbebb5c3d	-0.3659381
115	0xbf177d0a	-0.5917517
116	0x3e730a64	0.23734432
117	0x3e9871c0	0.29774284
118	0x3e05c2c0	0.13062572
119	0x3d787b9a	0.06066475
120	0x3d19e41d	0.03757106
121	0x3c80f5c6	0.015742194
122	0x3ddf1847	0.108933024
123	0xbd00bf2f	-0.031432327
124	0x3e148bbe	0.14506432
125	0xbd242caf	-0.040081676
126	0xbc5b519a	-0.013386155
127	0x3de64982	0.11244489
128	0x3dca0b81	0.098654754
129	0xbe308012	-0.17236355
130	0x3c1b0b4a	0.009463141
131	0xbd9d10a5	-0.0766919
132	0xbe8c12fb	-0.2735823
133	0xbe886696	-0.26640767
134	0xbe4c5b00	-0.19956589
135	0xbe033f37	-0.12817083
136	0x3d88c424	0.06678036
137	0xbdf1a805	-0.11799625
138	0x3bf09b49	0.00734273
139	0xbe827471	-0.25479463
140	0xbe91f314	-0.28505766
141	0x3d3d2a16	0.046182714
142	0xbebd9d3c	-0.37034023
143	0xbcc6acbb	-0.024252286
144	0xbc7953ea	-0.015217761
145	0xbeaa52bf	-0.33266255
146	0xbe2f13f8	-0.17097461
147	0xbc7cd4b8	-0.0154315755
148	0xbe87de91	-0.26536992
149	0x3d94a2b6	0.07257597
150	0xbea1e9b6	-0.3162362
151	0xbeb85f54	-0.3601023
152	0xbe922715	-0.28545442
153	0x3e827162	0.2547713
154	0xbe4f3ae2	-0.20237306
155	0x3de92a21	0.113849886
156	0xbeda21e2	-0.42603976
157	0xbf28ef71	-0.6599036
158	0xbe216e31	-0.15764691
159	0x3d0c54b0	0.03426045
160	0xbe1aa425	-0.15101679
161	0x3d35294c	0.044228837
162	0xbdde2ac2	-0.10847999
163	0xbe4f6e3e	-0.20256898
164	0x3ec9bafa	0.39400464
165	0x3e0df48b	0.13862817
166	0xbe4aea00	-0.19815826
167	0x3d16b158	0.036790222
168	0x3b1924be	0.0023367847
169	0xbe5afc3f	-0.21385287
170	0x3dce3d3c	0.10070273
171	0xbd52f2e2	-0.051501162
172	0xbdc46e80	-0.09591389
173	0xbdc5bfc0	-0.09655714
174	0x3dc8332e	0.09775387
175	0xbe3fd023	-0.18731742
176	0xbe48fd97	-0.19627987
177	0xbea5a76b	-0.32354292
178	0x3e59ca83	0.21268658
179	0x3f0074e9	0.5017839
180	0xbe662b9c	-0.22477573
181	0xbedbc1a6	-0.4292118
182	0xbe034fbb	-0.12823384
183	0xbe93d6fd	-0.2887496
184	0xbdd6ed8b	-0.104945265
185	0xbdc6222d	-0.09674487
186	0xbe14b92e	-0.14523765
187	0x3c837128	0.016045168
188	0xbe80f543	-0.2518712
189	0xbdd0b334	-0.1019043
190	0x3c396f91	0.011318103
191	0xbe8a9964	-0.27070153
192	0x3e28e189	0.16492285
193	0xbe25b1fa	-0.16181174
194	0x3d264705	0.040595073
195	0xbde6fe2d	-0.11278949
196	0xbe77bead	-0.24193831
197	0xbe9725e4	-0.29521096
198	0xbe9016f7	-0.2814252
199	0xbd089dc8	-0.033353597
200	0x3d85bdb2	0.06530322
201	0xbd92ec4f	-0.071739785
202	0x3de9db7e	0.11418818
203	0xbe43dbde	-0.19126841
204	0xbe846ec9	-0.25865772
205	0xbd395c55	-0.04525407
206	0xbea0eba4	-0.3142978
207	0x3c658048	0.014007635
208	0x3aeabf49	0.0017909791
209	0xbee5c010	-0.44873095
210	0xbe6446e1	-0.22292663
211	0x3d4bc8e1	0.04975212
212	0xbe90282a	-0.28155643
213	0x3e069679	0.13143338
214	0xbe6cf1ac	-0.23139066
215	0xbebdc035	-0.37060705
216	0xbe7f94ec	-0.24959153
217	0xbc8deb7b	-0.0173242
218	0xbe7fb974	-0.24973089
219	0x3df7d909	0.12101943
220	0xbeb8cf1e	-0.36095518
221	0xbf2604ef	-0.6485128
222	0xbe13cba7	-0.14433156
223	0xbb41b757	-0.0029558742
224	0xbe30ede8	-0.17278254
225	0xbce81d19	-0.028334187
226	0xbdbfcd23	-0.093652986
227	0xbe24a56f	-0.16078733
228	0xbd7ed5cf	-0.062215623
229	0xbb79b498	-0.0038102027
230	0xbe3c19b2	-0.18369177
231	0xbc9ddbee	-0.01926991
232	0x3d61b76a	0.055106558
233	0xbd90fa0b	-0.07078942
234	0x3ea0ca58	0.31404376
235	0xbd8aea4d	-0.067829706
236	0xbe21a602	-0.15785983
237	0xbe099b71	-0.13438202
238	0x3dc66a20	0.096882105
239	0xbe684418	-0.22682226
240	0xbe487cb6	-0.19578823
241	0xbecb9556	-0.39762372
242	0x3f0169ce	0.5055207
243	0x3ec93b54	0.39303076
244	0xbe36128c	-0.17780513
245	0xbe9aeced	-0.30258885
246	0xbdf7025d	-0.12060998
247	0xbe8eaaab	-0.27864584
248	0xbddab47f	-0.10678958
249	0xbded896a	-0.11598475
250	0xbde53a80	-0.111927986
251	0x3c6c3ecf	0.014419272
252	0xbe6e8881	-0.2329426
253	0xbdce152f	-0.10062634
254	0x3dd99a0a	0.10625084
255	0xbe26713f	-0.16254137

out.bias f4 [10]
0	0x3c975b6f	0.018476216
1	0x3d19739a	0.037463762
2	0xbc2adc50	-0.010428503
3	0x3cd8d8df	0.0264706
4	0x3d36e31f	0.044650193
5	0x3d0b493a	0.03400538
6	0x3ce7f185	0.028313408
7	0x3d10bf44	0.035338655
8	0xbd554b61	-0.05207384
9	0x3c4a6fd9	0.012355768
